SASRec/ml-1m_default/SASRec.epoch=201.lr=0.001.layer=2.head=1.hidden=50.maxlen=200.pth (torch, 859621 bytes, 28 tensors)

item_emb.weight f4 [3417, 50]
0	0xbd16275b	-0.036658626
1	0x3c3bb9a6	0.011457836
2	0x3ce5811e	0.02801567
3	0x3aec1748	0.001801231
4	0x3cabce2d	0.020972336
5	0x3cd6c533	0.026217079
6	0xba303d71	-0.00067230227
7	0xbc06bcc0	-0.008223712
8	0xbc9ebb66	-0.019376468
9	0xbd72ea35	-0.05930539
10	0x3c5040c9	0.0127107585
11	0xbbda30c6	-0.0066586463
12	0xbd09a8bf	-0.033608194
13	0xbb7f4fd7	-0.00389575
14	0x3bc09664	0.005877303
15	0x3c041b5a	0.008063162
16	0xbd181426	-0.03712859
17	0xbbdfe2da	-0.0068324627
18	0xbc59475f	-0.013261645
19	0xbbc75997	-0.006083678
20	0xbbc22f87	-0.005926076
21	0x3cf48402	0.029848102
22	0x3cc2b959	0.023770021
23	0xbc07a062	-0.008277984
24	0x3d17f17c	0.03709553
25	0xbce7a142	-0.028275136
26	0x3d089a98	0.033350557
27	0x3cce6fd9	0.025199817
28	0xbceb0144	-0.028687127
29	0x3c222300	0.00989604
30	0x3cdae3f6	0.026720028
31	0x3d1b4d18	0.03791532
32	0xbc87d2aa	-0.016579945
33	0xbca5ee8e	-0.020255353
34	0xbd19d528	-0.037556797
35	0xbc6d2c92	-0.014475958
36	0xbbd5d916	-0.006526123
37	0x3ca5db0f	0.020246057
38	0xbb35e3dc	-0.0027754223
39	0x3d429879	0.04750869
40	0x3d215f35	0.039397437
41	0xbb41ba11	-0.0029560367
42	0xba44d7aa	-0.0007508943
43	0x3d07a438	0.033115596
44	0x3cb23ba4	0.021756954
45	0xb8d08508	-9.942992e-05
46	0x3bfe76ef	0.007765643
47	0xbd32aba9	-0.04362074
48	0xbc429ee7	-0.011878706
49	0xbcbd7be5	-0.023130367
50	0x3daba106	0.08380322
51	0x3d62d5f5	0.055379827
52	0xbe3f5ec7	-0.18688498
53	0x3df7af8d	0.120940305
54	0xbc10f4c4	-0.008847419
55	0x3d97feba	0.07421632
56	0x3d35feb8	0.04443237
57	0x3e6b2f6f	0.22967313
58	0x3d90a499	0.070626445
59	0x3ded0f00	0.11575127
60	0x3e2f15f1	0.17098214
61	0x3d789fc1	0.06069923
62	0xbdc2b1a7	-0.09506541
63	0x3e2b2caf	0.16716264
64	0x3e663627	0.22481595
65	0xbc0ca985	-0.0085853385
66	0xbe653b89	-0.22385992
67	0xbdd1e44d	-0.10248623
68	0xbd8ab14e	-0.067720994
69	0xbd7874b6	-0.06065818
70	0xbd791844	-0.060814157
71	0xbe4ed7a9	-0.20199455
72	0xbc808acc	-0.015691184
73	0xbd77e135	-0.06051751
74	0x3dceeebb	0.10104128
75	0xbe3bc2e2	-0.1833606
76	0x3d8f139a	0.069861606
77	0xbb697964	-0.0035625333
78	0xbd678791	-0.05652577
79	0x3bcfac7d	0.006337701
80	0xbe1290ee	-0.14313099
81	0x3b909787	0.0044125947
82	0x3dec0472	0.115242854
83	0x3e68c065	0.22729643
84	0x3b9ce4a9	0.0047880006
85	0xbdff3014	-0.12460342
86	0xbd842b66	-0.0645359
87	0x3d4c6dff	0.049909588
88	0xbdedbfea	-0.1160887
89	0x3d0aee90	0.033918917
90	0xbd3896e8	-0.04506579
91	0xbe04a08b	-0.12951867
92	0xbc966ca7	-0.018362356
93	0xbd9bff7c	-0.07617089
94	0xbe17120a	-0.14752975
95	0x3e8d58fe	0.27606958
96	0xbcb6337d	-0.022241348
97	0x3d0a7dc3	0.033811342
98	0xbdc62d24	-0.09676579
99	0x3ded87f2	0.11598195
100	0x3e249108	0.1607095
101	0xbce72c99	-0.028219508
102	0xbd5648a4	-0.05231537
103	0xbe3a82ea	-0.18214002
104	0x3d1d3cba	0.03838799
105	0xbd8c9549	-0.068644114
106	0x3de2c235	0.11072198
107	0xbc99bab8	-0.018765792
108	0x3d93e63c	0.07221648
109	0x3d25127c	0.04030083
110	0x3e908e7a	0.282337
111	0x3e320ea7	0.17388402
112	0xbc4518a5	-0.0120298015
113	0x3d6d5632	0.05794353
114	0xbc6cefc9	-0.014461466
115	0x3d58b298	0.052904695
116	0x3df955d9	0.12174577
117	0xbe10b4a9	-0.14131416
118	0xbb48ef52	-0.0030660224
119	0xbc87b51b	-0.01656585
120	0xbd0e6283	-0.034761917
121	0xbe013555	-0.12618001
122	0x3e44368b	0.19161431
123	0xbd0254ac	-0.03181903
124	0x3e284116	0.16431078
125	0xbd078451	-0.03308517
126	0xbe3bd7c0	-0.18344021
127	0x3c4fdbc3	0.012686673
128	0xbe886ef5	-0.26647153
129	0xbdabbe9b	-0.083859645
130	0xbcfaded8	-0.030623838
131	0xbe2cc095	-0.16870339
132	0x3de11708	0.10990721
133	0xbe50d667	-0.20394288
134	0x3dadc6b4	0.08485165
135	0xbe1f00af	-0.15527605
136	0xbea6f7e7	-0.3261101
137	0x3d31119e	0.04322969
138	0x3eb05e0b	0.3444675
139	0xbc81fd8b	-0.015867969
140	0xbd08ba28	-0.033380657
141	0xbd8024d5	-0.06257025
142	0xbdba20a4	-0.09088257
143	0xbe2b0514	-0.16701156
144	0x3d9fec8b	0.07808789
145	0xbe10eb15	-0.14152177
146	0xbd0488b1	-0.03235692
147	0xbcea5906	-0.028606903
148	0x3c52df74	0.012870658
149	0xbc20ef5a	-0.009822691
150	0x3d740c34	0.05958195
151	0x3e3ce82c	0.18447942
152	0xbe1e3984	-0.15451628
153	0x3db359c6	0.08757357
154	0x3ba9192b	0.005160471
155	0xbe44abc1	-0.19206144
156	0xbde36202	-0.11102678
157	0x3e1a635d	0.15076967
158	0x3d212e4c	0.039350793
159	0xbb961985	-0.004580679
160	0x3db8bb4f	0.09020101
161	0x3de135be	0.10996579
162	0xbe89f8cc	-0.2694763
163	0xbe8fc193	-0.28077373
164	0x3e1b6ad4	0.1517747
165	0x3d69fa1b	0.057123285
166	0xbd8a1881	-0.06742955
167	0x3dacdba7	0.08440333
168	0x3d1cb19d	0.038255323
169	0xbcd24a01	-0.025670053
170	0x3db3abde	0.087730154
171	0xbc1ea7ce	-0.009683562
172	0x3ccaf737	0.024776084
173	0x3d9f3dfd	0.07775495
174	0x3e6b2325	0.22962625
175	0x3d5a817d	0.053346146
176	0xbd8f3b32	-0.069937125
177	0xbc83a86f	-0.016071526
178	0xbe977a25	-0.29585376
179	0x3e011ec4	0.12609392
180	0x3d11670c	0.035498664
181	0xbda45de9	-0.080257244
182	0x3d9d43e5	0.076789655
183	0xbd71cb96	-0.059032045
184	0xbcfd300d	-0.030906701
185	0x3db76f3e	0.08956765
186	0xbdbd819c	-0.09253237
187	0x3d84606b	0.06463703
188	0xbd1dd06e	-0.038528852
189	0xbd883b74	-0.06651965
190	0xbd7f7220	-0.062364697
191	0xbe931988	-0.28730416
192	0xbe127e1b	-0.14305918
193	0x3d62d019	0.05537424
194	0x3da584cd	0.0808197
195	0xbd3c1e3d	-0.045927275
196	0xbe4bb48a	-0.19893089
197	0x3de0b49b	0.10971948
198	0x3e804dbe	0.25059313
199	0xbd2c6a87	-0.04209378
200	0x3e0e1491	0.13875033
201	0x3d5052b5	0.050860126
202	0xbd3a2557	-0.045445766
203	0xbbe8b7ed	-0.007102004
204	0xbe18e61b	-0.14931528
205	0xbdcdd650	-0.100506425
206	0x3e25ae64	0.16179806
207	0x3df321a4	0.11871651
208	0x3e48ded0	0.19616246
209	0x3d8e66c0	0.06953192
210	0x3e6d4c70	0.2317369
211	0xbc2b9c95	-0.010474344
212	0xbe81484e	-0.25250477
213	0xbc6d528a	-0.014485011
214	0x3eb5640b	0.3542789
215	0xbc42fb11	-0.011900679
216	0x3aaf07db	0.0013353782
217	0xbe45afbe	-0.19305322
218	0xbd8b19e4	-0.067920476
219	0xbd50aa9b	-0.050943952
220	0xbcaef8ef	-0.021358935
221	0xbe756335	-0.23963626
222	0x3d809dbe	0.06280087
223	0xbd139148	-0.036027223
224	0x3c83c15d	0.016083414
225	0xbe158059	-0.14599742
226	0xbcc85706	-0.024455559
227	0xbd8e3d0a	-0.06945236
228	0xbe08b51b	-0.13350336
229	0x3d370908	0.044686347
230	0xbd4b5a30	-0.049646556
231	0xbd880fe1	-0.06643654
232	0x3b90c2d5	0.004417757
233	0x3dfd5f04	0.123716384
234	0xbc435781	-0.011922718
235	0xbd80d69f	-0.06290936
236	0xbd77a0b4	-0.060455993
237	0xbcb00442	-0.021486405
238	0xbe0f9f96	-0.14025721
239	0x3c2aa296	0.01041474
240	0x3dc98039	0.0983891
241	0xbd9abacb	-0.07555159
242	0xbc6d087a	-0.014467353
243	0x3e14914c	0.14508551
244	0xbd8b13c2	-0.06790878
245	0x3e02e5bb	0.12782948
246	0xbdeb0b7c	-0.114768
247	0x3d16c828	0.036811978
248	0xbc911c72	-0.01771376
249	0xbceb70e3	-0.028740352
250	0x3d132c61	0.035930995
251	0x3c5c4e5d	0.013446418
252	0xbd80e1dd	-0.0629308
253	0xbbfd8369	-0.0077366126
254	0xbdf6f47f	-0.12058353
255	0xbe214438	-0.1574868

pos_emb.weight f4 [200, 50]
0	0x3f11d6da	0.5696846
1	0xbe7c91d5	-0.24665006
2	0x3f59a44c	0.8501632
3	0x3f74d5ca	0.95638716
4	0xbec526f7	-0.3850629
5	0x3f712985	0.9420398
6	0x3db533d4	0.08847776
7	0xbf1f0877	-0.6212229
8	0x3f16cf62	0.5891019
9	0x3ecc70dc	0.39929855
10	0x3d82e40f	0.06391155
11	0xbf66d31b	-0.9016587
12	0x3f907e86	1.1288612
13	0xbf369b16	-0.7133039
14	0x3dde0701	0.1084118
15	0x3f2698e8	0.65077066
16	0xbe29b4f4	-0.16572934
17	0x3f0484ac	0.5176494
18	0x3e48b587	0.19600497
19	0x3f929d85	1.1454321
20	0x3ec7d46b	0.3902925
21	0x3ebf49e3	0.3736106
22	0xbf0ba543	-0.54549044
23	0xbf8122ff	-1.0088805
24	0x3f2441f3	0.6416313
25	0x3f334810	0.70031834
26	0xbe6b4ddb	-0.22978918
27	0x3f9ddf90	1.2333851
28	0x3f9f4ae6	1.2444732
29	0x3e511393	0.20417623
30	0xbec1b511	-0.37833455
31	0xbf6a6bc0	-0.91570663
32	0x3f1a34e1	0.60236937
33	0xbf242112	-0.6411296
34	0xbf36be08	-0.71383715
35	0x3ec57bf3	0.38571128
36	0x3f081e61	0.53171355
37	0x3f97c3cd	1.1856629
38	0x3e14e923	0.1454206
39	0xbef80263	-0.4843932
40	0x3d9b34e3	0.07578447
41	0xbeaf9ee7	-0.3430092
42	0x3e22f83b	0.15915005
43	0xbf812d6e	-1.0091989
44	0x3f5ca54f	0.8618974
45	0x3f0f0c41	0.5587807
46	0xbe91cdc0	-0.28477287
47	0x3dbb5ccb	0.09148558
48	0xbe101221	-0.14069416
49	0x3f36af5c	0.7136133
50	0x3e8b2228	0.27174497
51	0xbecb00a0	-0.39648914
52	0x3f116c06	0.56805456
53	0x3f30d61f	0.6907672
54	0xbe143b81	-0.14475824
55	0x3f1f80a9	0.62305695
56	0xbd67f9a9	-0.05663458
57	0xbf028078	-0.5097728
58	0x3f23761b	0.6385209
59	0x3e4b9db6	0.1988438
60	0xbded5d01	-0.11590005
61	0xbf6b163d	-0.9183081
62	0x3f7905a4	0.9727423
63	0xbf45e898	-0.77308035
64	0xbdba6d7c	-0.09102914
65	0x3d562b2a	0.05228726
66	0xbd713963	-0.05889262
67	0x3e4efee8	0.20214427
68	0x3eb4ac32	0.35287625
69	0x3f2ac5a0	0.667078
70	0x3e88b5fb	0.2670134
71	0x3eb0b112	0.34510094
72	0xbef30052	-0.47461182
73	0xbf309aad	-0.68986017
74	0x3e86fd6e	0.26365227
75	0x3f3eb65c	0.7449701
76	0xbe9ffa99	-0.31245878
77	0x3f4905dc	0.78524566
78	0x3f6587c0	0.89660263
79	0xbe246051	-0.16052367
80	0x3a2edf47	0.0006670844
81	0xbf05f953	-0.52333564
82	0x3dafe8a1	0.08589292
83	0xbe5c6d5e	-0.21526095
84	0xbf67fc7c	-0.90619636
85	0x3f00d03c	0.5031774
86	0x3f0c0922	0.54701436
87	0x3f0b80a6	0.54493177
88	0xbe49c085	-0.19702347
89	0x3df31eba	0.11871095
90	0x3e45f00e	0.19329855
91	0xbde06dea	-0.109584644
92	0x3e08b3cb	0.13349836
93	0xbf1aa98a	-0.60414946
94	0x3edf5cdb	0.4362553
95	0x3eae4517	0.34037086
96	0xbe70c317	-0.23511921
97	0x3d13fd06	0.036129974
98	0xbe452e44	-0.1925593
99	0x3f474022	0.77832234
100	0xbe6c1897	-0.23056255
101	0xbe620294	-0.22071296
102	0x3e47514f	0.1946461
103	0x3ebe593c	0.37177455
104	0xbe9c6936	-0.3054902
105	0x3f27665e	0.65390575
106	0xbe296b80	-0.16544914
107	0xbf0d10bc	-0.5510366
108	0x3f4e4ad0	0.80582905
109	0x3ebe49cb	0.37165675
110	0xbebf2c9e	-0.37338728
111	0xbf68ce0a	-0.9093939
112	0x3f5104e3	0.8164808
113	0xbf3e3c79	-0.74311024
114	0x3db7929c	0.089635104
115	0xbe21edb2	-0.1581333
116	0xbd8a0981	-0.06740094
117	0x3e103c8d	0.14085598
118	0x3f01e088	0.5073323
119	0x3ec9fbcb	0.39449915
120	0x3eccf6e1	0.40032104
121	0x3f008f53	0.50218695
122	0xbe854e31	-0.26036218
123	0xbf58682d	-0.8453396
124	0x3e63df17	0.22253071
125	0x3f2dec81	0.67939
126	0xbeca31e0	-0.39491177
127	0x3f20bf52	0.6279193
128	0x3f4028d4	0.750623
129	0xbece6e95	-0.40318742
130	0x3de5cc30	0.11220586
131	0xbe9f3285	-0.3109323
132	0x3e4359ca	0.1907722
133	0xbe6d4eae	-0.23174545
134	0xbf365780	-0.71227264
135	0x3ec080f7	0.37598392
136	0x3f1aa6ec	0.6041095
137	0x3e8d6c94	0.276219
138	0xbe400d48	-0.18755066
139	0xbde7b9f4	-0.113147646
140	0x3e928d97	0.2862365
141	0xbdb30388	-0.08740908
142	0x3e281d68	0.16417468
143	0xbebc14c0	-0.3673458
144	0x3eea854a	0.45804816
145	0x3ea04b98	0.31307673
146	0xbe91a750	-0.28447962
147	0xbd9c1a2b	-0.07622179
148	0xbebb64e5	-0.36600414
149	0x3f31f70e	0.695176
150	0xbee0907d	-0.43860236
151	0xbe2ade5b	-0.16686384
152	0x3e923596	0.28556508
153	0x3e939316	0.28823155
154	0xbd922056	-0.07135074
155	0x3f15bc65	0.5849059
156	0x3de0fd94	0.10985866
157	0xbf1a5ff9	-0.6030269
158	0x3f39124a	0.7229353
159	0x3ec09d3a	0.37619954
160	0xbebc4194	-0.36768782
161	0xbf7cb0b1	-0.9870711
162	0x3f4c744d	0.7986496
163	0xbf4274eb	-0.7595965
164	0x3d53b275	0.05168386
165	0xbd88d7e8	-0.06681806
166	0x3da79064	0.08181837
167	0x3e49ea04	0.19718176
168	0x3ee0fe38	0.43943954
169	0x3e95cc68	0.29257512
170	0x3e801072	0.25012547
171	0x3e4225c0	0.18959713
172	0xbe3141ca	-0.17310253
173	0xbf3457bc	-0.7044637
174	0x3d39de3e	0.045377962
175	0x3f0e630e	0.55619895
176	0xbefc30f2	-0.49256092
177	0x3f0cf7c1	0.5506554
178	0x3ee0e7ab	0.4392675
179	0xbe301eee	-0.17199299
180	0x3ea4f507	0.3221819
181	0xbef06372	-0.4695087
182	0xbe267da6	-0.16258869
183	0xbdce05ee	-0.10059725
184	0xbf26b017	-0.6511244
185	0x3f208dfd	0.62716657
186	0x3f46832c	0.775439
187	0x3e2d147b	0.16902344
188	0xbd403ab8	-0.046931
189	0x3dfd86d1	0.1237923
190	0x3ed5bf7c	0.41747653
191	0x3da50a61	0.0805862
192	0xbd1090ab	-0.035294216
193	0xbeeb06d5	-0.4590365
194	0x3eeead9d	0.4661683
195	0x3e857f6c	0.26073778
196	0xbeba7355	-0.36416116
197	0xbbc142ff	-0.005897879
198	0xbeaf04b4	-0.34183276
199	0x3f4fcb4d	0.8116959
200	0xbec957a5	-0.3932468
201	0xbe8d262e	-0.2756819
202	0x3eb07d60	0.34470654
203	0x3e7e7c79	0.2485217
204	0x3e5ddc34	0.21666032
205	0x3f16bc95	0.58881503
206	0x3defe2fa	0.11713214
207	0xbf187134	-0.59547734
208	0x3f161f97	0.5864195
209	0x3ebd5784	0.36980832
210	0xbea484b7	-0.32132503
211	0xbf822f39	-1.0170661
212	0x3f618ebc	0.8810842
213	0xbf39abde	-0.72527874
214	0xbd569509	-0.052388225
215	0xbe116ff8	-0.14202869
216	0xbe48f3d3	-0.19624262
217	0x3ea5f80a	0.324158
218	0x3f2600c8	0.6484494
219	0x3e594223	0.21216635
220	0x3eb4474f	0.35210654
221	0x3ed2df4c	0.41185987
222	0xbeb0e7cc	-0.34551847
223	0xbf1a3cb1	-0.6024886
224	0x3c444c48	0.0119810775
225	0x3f2dee84	0.6794207
226	0xbed7ff08	-0.4218676
227	0x3ed63177	0.41834614
228	0x3ecbb0af	0.39783236
229	0xbf068ed8	-0.5256171
230	0x3df56ddc	0.11983845
231	0xbee1a9ee	-0.4407496
232	0x3dc11e16	0.094295666
233	0x3e01efad	0.12689085
234	0xbf3f5cd7	-0.7475104
235	0x3eb10ce1	0.34580138
236	0x3f4985ec	0.78719974
237	0x3eb1fcb6	0.34763116
238	0xbdc3bd61	-0.095576055
239	0x3dda7931	0.10667647
240	0x3e9f43c9	0.31106403
241	0x3ecc7dde	0.3993978
242	0x3d319a9e	0.043360345
243	0xbea39145	-0.3194677
244	0x3e8f76f0	0.2802043
245	0x3e084712	0.13308361
246	0xbe90bab0	-0.2826743
247	0x3bd0e3cb	0.0063748113
248	0xbe31f92c	-0.17380208
249	0x3f2ce36a	0.67534506
250	0xbdeda740	-0.11604166
251	0xbebff51b	-0.37491688
252	0x3ef02eb1	0.46910623
253	0x3e8c34d9	0.2738407
254	0x3e42baf3	0.19016628
255	0x3f06f8ee	0.52723587

attention_layernorms.0.weight f4 [50]
0	0x3f4a0270	0.7890997
1	0x3f42f8ce	0.76160896
2	0x3f180575	0.59383327
3	0x3f358d52	0.7091876
4	0x3f7f4b9f	0.99724764
5	0x3f4ef11a	0.8083664
6	0x3f627cff	0.8847198
7	0x3ecc8fa5	0.39953342
8	0x3f60bbed	0.8778675
9	0x3f32a18c	0.6977775
10	0x3f51abda	0.8190285
11	0x3efd5178	0.49476218
12	0x3f03d3f0	0.51495266
13	0x3f4ac95d	0.79213506
14	0x3f52f427	0.82403797
15	0x3f3abc21	0.7294331
16	0x3f538542	0.8262521
17	0x3f4cf4a6	0.80060804
18	0x3f5a9ba9	0.8539377
19	0x3f6f0a7d	0.9337538
20	0x3f53dbbd	0.8275717
21	0x3f3176c0	0.69321823
22	0x3ed409ab	0.41413626
23	0x3f144f30	0.5793333
24	0x3f5494e1	0.8303967
25	0x3f6b3ce0	0.9188976
26	0x3f2c898d	0.67397386
27	0x3f555673	0.83335036
28	0x3f55e05c	0.8354547
29	0x3f3fd4e2	0.7493421
30	0x3f51d452	0.819646
31	0x3f31f194	0.69509244
32	0x3f546c37	0.8297762
33	0x3f373e8d	0.7157982
34	0x3f39b74d	0.7254532
35	0x3f670400	0.9024048
36	0x3f30b7b8	0.6903033
37	0x3f6a4111	0.91505533
38	0x3f5781a9	0.8418222
39	0x3f5ca4a6	0.86188734
40	0x3ef4458b	0.47709307
41	0x3f442ff8	0.76635695
42	0x3e95c35a	0.29250604
43	0x3f7363e9	0.95074326
44	0x3f688759	0.90831524
45	0x3f6cad2c	0.9245174
46	0x3f5adb32	0.85490716
47	0x3f65ea21	0.8981038
48	0x3f748575	0.9551614
49	0x3f441731	0.7659789

attention_layernorms.0.bias f4 [50]
0	0x3de52032	0.111877814
1	0xbdddca92	-0.10829653
2	0xbe22f5f2	-0.15914133
3	0xbd7d5ce7	-0.061856177
4	0xbc340464	-0.010987375
5	0xbe09a3a0	-0.13441324
6	0x3b861790	0.0040921643
7	0x3ef6930d	0.48159066
8	0x3d248cfb	0.040173512
9	0xbe2dd19b	-0.1697449
10	0x3e2d969b	0.16951983
11	0x3dbae81a	0.09126301
12	0x3d8ae698	0.067822635
13	0x3d66072a	0.056159176
14	0x3e2559ad	0.1614749
15	0x3dd403ad	0.103522636
16	0xbcdda612	-0.027056728
17	0x3dd430e7	0.1036089
18	0xbde1f015	-0.1103212
19	0x3e2001b8	0.15625656
20	0xbde712bf	-0.112828724
21	0xbe1b133e	-0.15144059
22	0x3ee86819	0.4539192
23	0x3d9ac1db	0.07556506
24	0x3ed1b4bc	0.40958202
25	0x3cc8ed42	0.024527196
26	0xbcdb9c69	-0.02680798
27	0x3d7efd8b	0.062253516
28	0x3dbc9987	0.092089705
29	0xbc44e461	-0.01201734
30	0x3da9a59e	0.08283542
31	0xbddbc931	-0.107317336
32	0x3c1a7b56	0.00942882
33	0x3cd2498b	0.025669834
34	0x3d8e81a5	0.069583215
35	0xbe3a3e05	-0.18187721
36	0xbea02b02	-0.31282812
37	0xbc14aeed	-0.009074909
38	0xbe24fe66	-0.1611267
39	0x3bcaf60b	0.0061938814
40	0xbe1bcb33	-0.15214233
41	0xbdd83273	-0.105564974
42	0x3d819516	0.06327264
43	0xbd888e49	-0.06667764
44	0xbc7fa40a	-0.015603075
45	0x3e08a78e	0.13345167
46	0xbd838d51	-0.06423438
47	0xbe0c8537	-0.13722692
48	0x3ebf70a3	0.37390622
49	0xbccc24bc	-0.02491986

attention_layernorms.1.weight f4 [50]
0	0x3ec6671a	0.38750535
1	0x3f70164f	0.9378404
2	0x3f06c436	0.52643144
3	0x3efa3de5	0.48875347
4	0x3f6e5ee4	0.9311354
5	0x3f1a27cc	0.60216975
6	0x3f4caeb2	0.79954064
7	0x3f5a7361	0.85332304
8	0x3f24dd3c	0.64400077
9	0x3f228e7d	0.6349867
10	0x3f440fd7	0.7658667
11	0x3ee2f40a	0.44326812
12	0x3ed3c757	0.41363022
13	0x3f0d6a2b	0.55240124
14	0x3f1890b0	0.59595776
15	0x3f3fd8e2	0.7494031
16	0x3f2f4cc2	0.684765
17	0x3f16473f	0.5870246
18	0x3f2f9217	0.6858229
19	0x3f5ee7db	0.87072533
20	0x3f0eb09a	0.5573822
21	0x3f0f2d1c	0.55928206
22	0x3f3d12b9	0.73856694
23	0x3f6331cc	0.8874786
24	0x3f27ca41	0.6554299
25	0x3f144c4e	0.5792893
26	0x3f518344	0.8184092
27	0x3f588604	0.8457949
28	0x3f16daab	0.5892741
29	0x3f2b9062	0.67017186
30	0x3f328972	0.69740975
31	0x3f2b6999	0.66958004
32	0x3f57ddc5	0.8432277
33	0x3f26e6d8	0.6519599
34	0x3f14be37	0.58102745
35	0x3f34919b	0.70534676
36	0x3f30e721	0.69102675
37	0x3f30f19d	0.6911867
38	0x3f0f0d4e	0.55879676
39	0x3f15da62	0.5853635
40	0x3f31b617	0.6941847
41	0x3f1c5b3b	0.61076707
42	0x3eeba52f	0.46024463
43	0x3f3a5845	0.7279094
44	0x3f2ac7a2	0.66710865
45	0x3f316552	0.6929523
46	0x3f0cb62b	0.54965466
47	0x3f596975	0.8492654
48	0x3f062ac6	0.5240902
49	0x3f06f3ff	0.5271606

attention_layernorms.1.bias f4 [50]
0	0x3e87729f	0.26454636
1	0x3da129f2	0.078693286
2	0xbde22320	-0.11041856
3	0xbc3fa32e	-0.01169662
4	0xbd8458a8	-0.06462222
5	0xbd3ba07b	-0.045807343
6	0xbd265c78	-0.04061553
7	0x3e11e78e	0.14248487
8	0xbe198701	-0.14992906
9	0x3d25b63a	0.040456988
10	0x3e4a0266	0.19727477
11	0x3e6c8a9e	0.23099753
12	0xbd696751	-0.056983296
13	0x3e048377	0.12940775
14	0x3d807d2f	0.06273877
15	0x3de55bb8	0.111991346
16	0x3e0dd96e	0.13852474
17	0x3db76d0c	0.08956346
18	0xbdf20cb5	-0.1181883
19	0x3d314edc	0.043288097
20	0xbd71323f	-0.05888581
21	0xbdce7b4c	-0.10082111
22	0xbb117490	-0.002219472
23	0x3dea440c	0.1143876
24	0x3d137acd	0.036005784
25	0xbdaf6d49	-0.08565766
26	0x3e287738	0.16451728
27	0xbd71e674	-0.059057668
28	0xbdeb7dcc	-0.11498603
29	0x3d3046a3	0.043036114
30	0xbe4c08f3	-0.19925289
31	0x3d83dc88	0.064385474
32	0x3d4c9576	0.049947225
33	0xbdbb3b27	-0.09142142
34	0x3e532053	0.206178
35	0x3d806b21	0.06270433
36	0xbcab084b	-0.020877978
37	0x3dbd0717	0.09229868
38	0x3dd9c8fe	0.10634039
39	0xbdea3e10	-0.11437619
40	0x3dd77e57	0.10522144
41	0x3de9583d	0.11393783
42	0xbeb543b6	-0.35403222
43	0x3e10f9a5	0.14157732
44	0x3c97c115	0.018524686
45	0x3ce7eb73	0.028310513
46	0x3d68cb01	0.056834225
47	0x3d53f952	0.051751442
48	0x3cf0a51d	0.029375607
49	0xbd26ff59	-0.040770862

attention_layers.0.in_proj_weight f4 [150, 50]
0	0x3e17a618	0.14809453
1	0x3e25d65b	0.16195051
2	0x3d0366ee	0.032080583
3	0xbd6e7093	-0.058212828
4	0x3cc8f208	0.024529472
5	0x3d52e5ab	0.05148856
6	0xbe105edf	-0.1409869
7	0xbc8cd735	-0.017192462
8	0x3e12735e	0.14301822
9	0xbcddcefd	-0.027076239
10	0x3c3438ab	0.010999839
11	0xbe217428	-0.15766966
12	0xbd9e22f9	-0.07721514
13	0x3d8e4d10	0.06948292
14	0x3b8d5564	0.004313158
15	0xbcbfbde9	-0.023405986
16	0xbd06c3bc	-0.03290151
17	0x3b8a2449	0.0042157513
18	0xbdebdafb	-0.115163766
19	0xbd6d7795	-0.05797537
20	0x3d30f410	0.043201506
21	0x3d30af12	0.04313571
22	0x3d18033a	0.037112452
23	0xbde3ccec	-0.1112307
24	0x3e0f411e	0.13989684
25	0xbd28deb9	-0.04122803
26	0xbd3fae37	-0.046797004
27	0x3c320092	0.010864394
28	0x3d26eef2	0.04075522
29	0xbd80b964	-0.062853605
30	0xbe033e62	-0.12816766
31	0xbdbeb5ac	-0.09311995
32	0xbc6b6728	-0.014367856
33	0xbdc13a4f	-0.094349496
34	0x3db56ebd	0.08859012
35	0xbde9645c	-0.11396095
36	0x3da2fafb	0.07958027
37	0x3bba950e	0.0056940382
38	0x3cc42243	0.023942119
39	0xbdac9880	-0.084275246
40	0xbd0a4c0a	-0.033763923
41	0x3e573e52	0.21019867
42	0x3e23f103	0.16009907
43	0xbde4c83c	-0.11171004
44	0x3d9ed7cd	0.077560045
45	0xbce5ebc4	-0.028066523
46	0xbc20d9f4	-0.009817589
47	0xbe070a33	-0.13187484
48	0x3dd952cb	0.10611495
49	0x3cbe840c	0.023256324
50	0xbd8a0c9d	-0.06740687
51	0xbe3577af	-0.17721437
52	0xbdde29de	-0.10847829
53	0x3ddd5966	0.10808067
54	0xbcd06a9b	-0.025441458
55	0xbd48f195	-0.049058516
56	0xbd394c04	-0.04523851
57	0x3e2f24c3	0.17103867
58	0xbc818690	-0.015811235
59	0x3e1075e5	0.14107473
60	0xbd547f47	-0.051879194
61	0x3d8e4233	0.0694622
62	0xbe21e38d	-0.1580946
63	0xbe2d735e	-0.1693854
64	0x3c6e014f	0.014526679
65	0x3d4bd223	0.04976095
66	0x3e39b70a	0.1813623
67	0xbe267725	-0.16256388
68	0xbd6360c8	-0.05551222
69	0x3d813bbc	0.063102216
70	0xbd97cf51	-0.07412589
71	0xbb6963fd	-0.0035612576
72	0x3df5ae7e	0.11996172
73	0xbb208007	-0.0024490373
74	0xbdbed7d6	-0.09318511
75	0xbdad0230	-0.08447683
76	0x3dc0234e	0.09381734
77	0x3d5c81b3	0.05383463
78	0x3b278e03	0.0025566823
79	0xbcbb7542	-0.022883061
80	0x3c9ec8a0	0.019382775
81	0x3da41f81	0.080138214
82	0x3da424e2	0.08014847
83	0x3ca3fd11	0.020018132
84	0x3e2b50ea	0.16730085
85	0xbdcacd28	-0.09902412
86	0xbc6b0559	-0.014344537
87	0xbe03560d	-0.12825795
88	0xbcd95c79	-0.026533352
89	0xbe15ff3e	-0.14648148
90	0xbea1cfe2	-0.31603914
91	0x3cc16b90	0.02361086
92	0x3e4546bc	0.19265264
93	0x3d7c933f	0.061663862
94	0x3dd39735	0.10331575
95	0x3d05527f	0.032549378
96	0x3d05a8fd	0.032631863
97	0xbbc25b5e	-0.005931302
98	0x3c4ca28b	0.012489925
99	0xbdab0183	-0.08349898
100	0xbc306e16	-0.010768434
101	0x3d893216	0.06699006
102	0x3e2b97fa	0.16757193
103	0xbe394c13	-0.18095426
104	0xbd757fdb	-0.059936386
105	0xbd55b004	-0.052169815
106	0xbcfe6508	-0.031054035
107	0x3ca1f6fb	0.01977109
108	0xbc9fd6e4	-0.019511648
109	0xbe5e9f53	-0.21740465
110	0xbc4d4ed5	-0.012531002
111	0xbdf3680b	-0.11885079
112	0x3ded2216	0.11578767
113	0x3d11ed2c	0.035626575
114	0x3d328b95	0.043590147
115	0xbd714c3b	-0.05891059
116	0x3cf10aab	0.029424032
117	0x3d6d41a4	0.057923928
118	0xbccbcc38	-0.024877653
119	0xbe17a7f6	-0.14810166
120	0xbd9aa0fa	-0.07550235
121	0xbd8f75dc	-0.07004902
122	0x3e4f60b5	0.20251735
123	0xbe01d955	-0.12680562
124	0x3d7e024f	0.06201392
125	0xbcf16f1f	-0.029471932
126	0x3d25af3f	0.04045033
127	0xbd965375	-0.07340137
128	0xbc8498e2	-0.016186181
129	0xbd04acff	-0.032391544
130	0xbd351343	-0.044207823
131	0xbc1bd2b8	-0.0095106885
132	0x3cdd9043	0.027046328
133	0x3cb525f4	0.022112824
134	0x3d2195a3	0.039449345
135	0x3cb48b05	0.022038946
136	0xbd58ccf6	-0.05292984
137	0x3bbb8096	0.0057221157
138	0x3d4aad03	0.049481403
139	0xbcc3b9db	-0.023892334
140	0x3db03b44	0.08605054
141	0x3d3c3948	0.045953065
142	0xbda8445f	-0.08216166
143	0x3b525242	0.0032092487
144	0x3d0039dd	0.031305183
145	0x3df2d871	0.11857689
146	0x3c841c4d	0.016126776
147	0xbb799bf5	-0.0038087342
148	0xbc6a0712	-0.014283912
149	0x3c60661f	0.013696223
150	0xbd9ee647	-0.07758766
151	0x3df7afe6	0.12094097
152	0xbd86ff3c	-0.06591651
153	0x3dc9f108	0.09860426
154	0xbd015c0d	-0.031581927
155	0x3d34278f	0.04398304
156	0x3e00c0b1	0.12573506
157	0xbe185f22	-0.1488004
158	0x3ac96793	0.001536595
159	0x3e326c13	0.1742404
160	0xbe00089d	-0.12503286
161	0x3d2877cb	0.04112987
162	0xbde1fa16	-0.11034028
163	0x3d05434d	0.032534886
164	0xbdbfc4f8	-0.09363741
165	0xbd9d24cb	-0.07673033
166	0xbdbdc41f	-0.09265923
167	0x3e0c3cd0	0.13695073
168	0x3dc91acc	0.09819564
169	0x3cebbc27	0.028776241
170	0x3db55947	0.08854919
171	0x3de42da8	0.11141521
172	0x3d00778c	0.03136401
173	0xbd86e447	-0.06586509
174	0x3cd00083	0.025390869
175	0xbb91b48d	-0.004446572
176	0xbd6983ab	-0.057010334
177	0x3e0625b4	0.1310032
178	0x3dc7445a	0.09729834
179	0xbd0cf51c	-0.034413442
180	0x3ddfb89a	0.10923882
181	0x3e25554e	0.16145822
182	0xbd30b8c7	-0.043144967
183	0x3dab9c9a	0.08379479
184	0xbd1852f1	-0.037188474
185	0xbdb4670b	-0.088087164
186	0x3db72cf6	0.089441225
187	0xbb660e73	-0.0035103827
188	0x3e16b493	0.14717321
189	0x3c04699a	0.008081818
190	0x3e257c81	0.16160776
191	0x3d7e0a80	0.062021732
192	0x3e54b6b9	0.20772828
193	0xbd1b0834	-0.03784962
194	0x3c34d6bf	0.011037528
195	0x3d4701e6	0.048585795
196	0x3dec0c08	0.11525732
197	0x3d6df66b	0.05809633
198	0xbc28392c	-0.010267537
199	0xbd4fd5b5	-0.050740916
200	0xbdcc2e9a	-0.09969826
201	0x3df8a1a6	0.12140207
202	0xbd1f2df7	-0.038862195
203	0xbc2bb1b8	-0.010479383
204	0x3cdba66d	0.026812756
205	0xbdeb283a	-0.11482282
206	0x3ce49d57	0.027907057
207	0x3e1bc340	0.152112
208	0x3e1ec8e8	0.15506327
209	0x3c969bd5	0.018384853
210	0xbdd22553	-0.10261025
211	0xbdaa4e47	-0.083157115
212	0x3d57096e	0.052499227
213	0xbd08f12e	-0.033433132
214	0x3d1e49ed	0.03864472
215	0xbdde8cc6	-0.10866694
216	0xbdd5f284	-0.10446647
217	0x3dda0812	0.106460705
218	0xbd85909c	-0.06521723
219	0xbd3417b5	-0.04396792
220	0xbcfe1885	-0.031017551
221	0x3d493947	0.04912689
222	0x3c5ee469	0.013604262
223	0x3cbe25cf	0.023211388
224	0x3d11b292	0.03557069
225	0xbd551996	-0.052026354
226	0xbd95d743	-0.073164485
227	0xbb8350c4	-0.0040074307
228	0x3defb5ac	0.11704573
229	0x3e0938ae	0.13400528
230	0xbdf156ba	-0.1178412
231	0xbd320a53	-0.043466877
232	0xbd380b78	-0.044932812
233	0x3da6ff86	0.08154206
234	0xbd0bfb83	-0.034175407
235	0x3e162196	0.1466125
236	0x3d00f619	0.031484697
237	0x3ce42215	0.027848283
238	0x3c536a3d	0.012903747
239	0x3e6d4aef	0.23173116
240	0xbe82bc74	-0.25534403
241	0x3df783d5	0.12085692
242	0x3e8d51dc	0.27601516
243	0x3d826203	0.063663505
244	0xbc8b8a35	-0.017033676
245	0x3dd6f41e	0.104957804
246	0x3d052686	0.032507442
247	0xbd8b4d99	-0.0680191
248	0xbbd3e30e	-0.006466276
249	0xbd91db7f	-0.07121944
250	0x3ce73b68	0.02822657
251	0x3df18c38	0.11794323
252	0x3c6f6197	0.01461067
253	0x3ca7eb77	0.02049802
254	0xbd7f1d9f	-0.06228411
255	0x3bfe4838	0.007760074

attention_layers.0.in_proj_bias f4 [150]
0	0xbf04a6fa	-0.51817286
1	0xbefb17cd	-0.49041596
2	0xbe090772	-0.13381746
3	0x3ef3bf16	0.47606725
4	0xbe70fcf3	-0.23533992
5	0x3f34554d	0.7044266
6	0xbea169c0	-0.31525993
7	0x3f1043d1	0.5635348
8	0x3e2f5782	0.17123225
9	0xbf0ff7ae	-0.56237304
10	0x3d2aa2b9	0.04165909
11	0x3eba7388	0.36416268
12	0x3f0aabfe	0.5416869
13	0xbf39fa27	-0.7264733
14	0xbf53cad8	-0.8273139
15	0x3f0a5b18	0.5404525
16	0xbde4a0c8	-0.11163479
17	0x3cff9831	0.0312005
18	0x3e0dc894	0.13846046
19	0xbf154e89	-0.5832296
20	0x3df52fb7	0.119719915
21	0x3e33ca49	0.17557634
22	0x3ee5c638	0.4487779
23	0x3e7a95c9	0.24471201
24	0xbe2f1503	-0.17097859
25	0xbee60a14	-0.44929564
26	0xbebaf6a6	-0.36516303
27	0xbef3dc60	-0.4762907
28	0x3e971db3	0.29514846
29	0xbed96162	-0.4245711
30	0x3f03d870	0.5150213
31	0xbcc557e6	-0.024089765
32	0xbedb6ad0	-0.4285493
33	0xbe124866	-0.1428543
34	0x3f155908	0.58338976
35	0xbdebe08b	-0.115174375
36	0xbd9f2110	-0.07769978
37	0x3e27cb1c	0.16386074
38	0xbe8d6d83	-0.27622613
39	0x3e3ed719	0.1863674
40	0xbe84c6b8	-0.2593286
41	0xbf454236	-0.77054155
42	0x3e0b926a	0.13630071
43	0x3d88a8eb	0.066728435
44	0x3efc0cfc	0.49228656
45	0xbf1078a7	-0.564341
46	0xbe9b902b	-0.3038343
47	0xbec15988	-0.3776362
48	0xbee6d5a3	-0.45084867
49	0x3eb98fbf	0.36242482
50	0x39b2e28d	0.000341196
51	0xb8fe38d5	-0.000121222496
52	0x395ccb88	0.00021056656
53	0x3865faac	5.483131e-05
54	0xb924603f	-0.00015676113
55	0x368867c8	4.0651976e-06
56	0x3a2d475d	0.000661006
57	0xba1d4686	-0.00059995835
58	0xb9820a8c	-0.0002480339
59	0x3a168cb0	0.000574301
60	0x38cd47ee	9.78856e-05
61	0xb8973cd8	-7.211574e-05
62	0x380ed05a	3.404948e-05
63	0xb9cd2b3b	-0.00039132856
64	0xb83275b6	-4.2548134e-05
65	0xb89f9508	-7.60947e-05
66	0x393b2f8c	0.00017851422
67	0xb997fcb6	-0.0002898925
68	0xba4f6352	-0.0007911223
69	0x39ae9946	0.00033302064
70	0xb90ab86c	-0.00013229408
71	0xba6a11e4	-0.00089290575
72	0xb9c76d73	-0.00038037784
73	0xb828fc46	-4.028927e-05
74	0xb92d15fd	-0.00016506757
75	0x391f6d65	0.00015204174
76	0x389edc80	7.5750984e-05
77	0xb937cdd6	-0.0001752892
78	0xb8829c83	-6.2280356e-05
79	0xb9e4dbac	-0.00043651217
80	0xba4a6b9e	-0.00077217247
81	0x3946fd36	0.0001897708
82	0x386c96d3	5.640725e-05
83	0x3993521c	0.000280992
84	0x39c5123b	0.0003758835
85	0x39ff78b4	0.0004872732
86	0xba133e70	-0.0005616909
87	0x39426cd9	0.0001854183
88	0x39e6a959	0.00043995192
89	0xb9347aa5	-0.00017211826
90	0xba0fa3e0	-0.00054794364
91	0x3993d670	0.00028197793
92	0x3a198bb4	0.0005857304
93	0x392acf60	0.00016289717
94	0xb90cc7b2	-0.00013425833
95	0xb9856828	-0.0002544534
96	0x398be427	0.00026682133
97	0x398b26f9	0.00026541183
98	0xb98184d7	-0.0002470377
99	0x3a3dab37	0.0007235291
100	0x3e0a00f1	0.13476922
101	0xbe89269b	-0.26787266
102	0xbbc8ea0b	-0.0061314157
103	0xbf204f83	-0.62621325
104	0xbdb31133	-0.08743515
105	0xbdf1b867	-0.1180275
106	0xbd575fbe	-0.05258154
107	0x3c075d1b	0.008261944
108	0xbdd3ecd4	-0.10347906
109	0xbe34a5b4	-0.17641336
110	0xbdb8ad46	-0.09017424
111	0x3e5c5bc6	0.21519384
112	0xbd9fae7c	-0.07796952
113	0x3e4f3ed7	0.20238815
114	0xbe6cd64f	-0.23128627
115	0x3e14a346	0.14515409
116	0xbe4b857b	-0.19875138
117	0xbd363f61	-0.044494037
118	0x3db6312f	0.088961
119	0xbe968988	-0.29401803
120	0x3e9fc1bc	0.31202495
121	0xbe99302f	-0.29919574
122	0xbd96995d	-0.073534705
123	0x3daaa7a6	0.08332758
124	0x3df54591	0.11976159
125	0xbdd1ef60	-0.10250735
126	0xbe806173	-0.25074348
127	0x3dca844c	0.09888515
128	0xbbe1a7d4	-0.0068864617
129	0xbd0f8d1b	-0.035046678
130	0x3eb43700	0.35198212
131	0xbbd5485b	-0.0065088696
132	0x3d4012a5	0.04689278
133	0xbf1de161	-0.61672026
134	0xbe3e050e	-0.18556616
135	0x3db67212	0.08908476
136	0x3df04db8	0.11733574
137	0xbe5087f0	-0.20364356
138	0x3e898888	0.26861978
139	0xbd7673ca	-0.06016902
140	0x3dd719f3	0.10502996
141	0xbd71175b	-0.058860164
142	0xbe3eab54	-0.18620044
143	0x3e2f8cd3	0.17143564
144	0xbcd4ac66	-0.025961112
145	0xbd12d4e2	-0.035847552
146	0x3d878c20	0.066185236
147	0xbe74ba90	-0.23899293
148	0x3dcf306a	0.10116656
149	0xbe1ca62e	-0.15297768

attention_layers.0.out_proj.weight f4 [50, 50]
0	0x3e065a2a	0.13120332
1	0x3e11f049	0.14251818
2	0x3e42eeeb	0.19036452
3	0xbe54b726	-0.2077299
4	0x3c48a6ca	0.012246797
5	0xbd655018	-0.055984586
6	0xbd03467f	-0.032049652
7	0xbe1f4ce1	-0.1555667
8	0xbdc38352	-0.09546532
9	0xbc396c63	-0.011317345
10	0x3d665686	0.05623486
11	0x3dbfa242	0.0935712
12	0x3cc2efdf	0.02379602
13	0xbd0d5a2a	-0.034509815
14	0xbd89be2a	-0.06725724
15	0x3db117e7	0.08647137
16	0xbdb85e78	-0.090023935
17	0x3e6b0b87	0.22953616
18	0x3dbae010	0.09124768
19	0x3d7dd8ce	0.06197434
20	0x3e80f9e5	0.25190654
21	0xbddc4a39	-0.10756344
22	0xbe13df4d	-0.14440651
23	0x3e0358f8	0.12826908
24	0x3d913089	0.070893355
25	0xbe94de43	-0.29075822
26	0xbf0e51da	-0.55593646
27	0x3d9adcc1	0.07561637
28	0x3e8951f2	0.26820332
29	0x3d754cb9	0.05988762
30	0xbe6bb4e7	-0.23018228
31	0xbe50ed1d	-0.20402952
32	0xbe95467c	-0.29155338
33	0x3d8ac109	0.067751
34	0xbd9def18	-0.07711619
35	0x3ce86d5d	0.028372461
36	0x3ccf4ecd	0.02530613
37	0xbd914b1f	-0.07094406
38	0xbe06cdcb	-0.13164441
39	0xbd89edaa	-0.06734784
40	0x3daa6c58	0.08321446
41	0x3e839e78	0.2570684
42	0x3e8ca8e0	0.2747259
43	0x3b76c16e	0.0037651914
44	0x3d0db1e6	0.034593485
45	0xbd9bd4e4	-0.07608965
46	0xbd12ea1e	-0.035867803
47	0x3e886a65	0.26643673
48	0xbc46d745	-0.012136285
49	0xbed0a683	-0.40752038
50	0x3e1b7f39	0.1518525
51	0xbe86a525	-0.2629787
52	0x3ec3d70e	0.3825001
53	0xbde44b6c	-0.11147198
54	0xbda477e7	-0.08030682
55	0x3e0f44ad	0.13991041
56	0x3c54994f	0.012976005
57	0xbe80153e	-0.25016207
58	0xbe8a4cfd	-0.27011862
59	0x3e4705e4	0.19435841
60	0xbd422d67	-0.04740658
61	0x3e864309	0.2622302
62	0x3e3cb9fe	0.18430325
63	0x3e251d55	0.1612447
64	0x3d5d447f	0.0540204
65	0x3e5e7812	0.2172549
66	0x3e8a1430	0.26968527
67	0xbe325893	-0.17416601
68	0xbd454bb4	-0.0481679
69	0x3e20cd93	0.1570342
70	0x3e9657c7	0.29363844
71	0x3d1e3534	0.038624957
72	0xb8561c3e	-5.104788e-05
73	0x3e73dd86	0.23814973
74	0xbe3bff10	-0.18359017
75	0xbd97a78a	-0.074050024
76	0xbd0d792c	-0.034539387
77	0xbe180a3b	-0.14847653
78	0xbe5320c6	-0.20617971
79	0xbdbbfbef	-0.09178912
80	0x3e4d49c5	0.20047672
81	0xbe3776db	-0.17916434
82	0x3eb7e8b5	0.3591973
83	0xbe3044a9	-0.17213692
84	0x3dde1bc6	0.10845141
85	0xbe2774c1	-0.16353132
86	0xbea25bd8	-0.31710696
87	0x3d2525ec	0.04031937
88	0xbe2d7a7b	-0.16941254
89	0xbe07eedb	-0.1327471
90	0x3d51d9d1	0.051233117
91	0xbe7e8c1a	-0.24858132
92	0xbe0c7328	-0.13715804
93	0xbea206f9	-0.31645945
94	0x3d87e0d7	0.06634682
95	0x3df6d9eb	0.12053283
96	0xbc1c3994	-0.009535212
97	0xbe063079	-0.13104428
98	0xbe8eac3c	-0.2786578
99	0xbcfd00f4	-0.030884244
100	0x3ed21d9e	0.4103822
101	0x3e5f5e12	0.21813229
102	0x3e230438	0.15919578
103	0x3e1391e8	0.14411128
104	0xbdc9f194	-0.098605305
105	0xbe10fc73	-0.14158802
106	0xbd2d804e	-0.04235869
107	0xbe184f05	-0.14873894
108	0x3ece4338	0.4028566
109	0x3e725d45	0.23668392
110	0x3e0f3adb	0.13987295
111	0xbdb73e45	-0.08947424
112	0xbd9512e3	-0.07278993
113	0xbee15a68	-0.44014287
114	0x3e593aca	0.21213832
115	0x3e21784a	0.15768543
116	0x3dc9589d	0.09831355
117	0x3e6589c7	0.22415839
118	0x3ec9b701	0.39397433
119	0xbe68c833	-0.2273262
120	0xbdf4bba4	-0.11949852
121	0xbe30ad64	-0.17253643
122	0xbe0dcf78	-0.13848674
123	0x3e00097e	0.12503621
124	0xbe8024f6	-0.250282
125	0x3e206112	0.1566203
126	0x3cee4d80	0.02908969
127	0xbd03a2bb	-0.032137614
128	0x3d80dfdd	0.062926985
129	0x3de06ff2	0.10958852
130	0xbe0e7b9a	-0.13914338
131	0x3e603d34	0.21898347
132	0xbb882184	-0.004154386
133	0x3e819597	0.2530944
134	0x3e11b6fe	0.14229962
135	0xbe22a8d9	-0.15884723
136	0x3d151dcd	0.036405373
137	0xbd8d6a64	-0.06905058
138	0xbe065712	-0.13119152
139	0xbdc4195b	-0.09575149
140	0xbd8b2f47	-0.06796127
141	0xbe8cfc34	-0.27536166
142	0x3c7913de	0.015202491
143	0xbe81cd0f	-0.2535176
144	0xbeac3c9c	-0.3363999
145	0xbe0560e5	-0.13025244
146	0x3ddc1925	0.107469834
147	0xbe380a9e	-0.179728
148	0x3e5bca9f	0.21464013
149	0x3b750e79	0.003739266
150	0xbec3f302	-0.38271338
151	0xbc680ae5	-0.014162754
152	0x3ea97694	0.3309828
153	0x3e341911	0.17587687
154	0xbded2654	-0.11579576
155	0xbe828f92	-0.2550016
156	0x3de337ac	0.11094603
157	0x3ded2472	0.11579217
158	0xbd1a6231	-0.0376913
159	0xbd6b02f0	-0.05737585
160	0xbe8f48e0	-0.27985287
161	0xbe80067c	-0.25004947
162	0x3e2b9b90	0.16758561
163	0xbe6301e1	-0.22168685
164	0xbe816dac	-0.25278986
165	0xbceee63e	-0.029162522
166	0x3e10bb34	0.14133912
167	0xbe227871	-0.15866257
168	0x3c3f04d0	0.011658862
169	0x3e35c74a	0.17751804
170	0xbda6ef1a	-0.08151074
171	0x3df78bf8	0.12087244
172	0xbe565655	-0.2093137
173	0xbdd83589	-0.10557086
174	0xbe21d6ad	-0.15804549
175	0x3c2761db	0.010216202
176	0xbe3deef2	-0.18548182
177	0xbce608c9	-0.028080361
178	0xbdf28c5f	-0.1184318
179	0x3d359f14	0.04434116
180	0xbe0e0ddb	-0.13872473
181	0x3d0d01a4	0.034425393
182	0x3e82b6c1	0.25530055
183	0x3e4c65ea	0.19960752
184	0x3debda8d	0.11516295
185	0x3e49a880	0.19693184
186	0x3dcdd56a	0.10050471
187	0x3d37dca2	0.044888146
188	0xbe19b9ad	-0.15012236
189	0xbe5fcbf5	-0.21855147
190	0x3e4cd895	0.20004494
191	0xbe0b9b7b	-0.1363353
192	0x3e5e1647	0.21688186
193	0x3e73aec3	0.23797135
194	0x3e3b6593	0.18300466
195	0xbcb5e455	-0.022203604
196	0x3ebd0c23	0.36923322
197	0x3c8e0510	0.017336398
198	0xbde89f9b	-0.11358567
199	0xbba0318c	-0.004888719
200	0x3e92344f	0.28555533
201	0xbd406c2b	-0.046978157
202	0xbe0ad65e	-0.13558337
203	0xbd38eb3c	-0.045146212
204	0x3d5952c4	0.053057447
205	0x3db9bde1	0.0906942
206	0xbec78878	-0.38971305
207	0xbe8d9f95	-0.27660814
208	0xbd2b43d5	-0.041812737
209	0xbeb3f3af	-0.35146853
210	0xbdd78e55	-0.105251946
211	0x3ea8c847	0.329653
212	0xbd96701e	-0.073456034
213	0xbe45da00	-0.19321442
214	0xbcd8be71	-0.026457997
215	0x3d78a4a8	0.060703903
216	0xbdd5f733	-0.1044754
217	0x3e8d646f	0.27615687
218	0xbd143a52	-0.03618843
219	0xbabfacb0	-0.0014623608
220	0x3d293953	0.041314434
221	0xbe6df03b	-0.23236172
222	0xbe39b630	-0.18135905
223	0x3d991eb0	0.07476556
224	0x3e171f97	0.14758144
225	0xbe22826e	-0.15870067
226	0xbd73558c	-0.059407756
227	0x3adff5db	0.001708682
228	0xbe8ad0bc	-0.27112377
229	0xbd34cbbf	-0.04413962
230	0xbd974fc9	-0.07388265
231	0xbd65380b	-0.05596165
232	0xbe2cdcbc	-0.16881078
233	0xbc8f56d5	-0.01749746
234	0xbda297be	-0.07939099
235	0xbe0471ed	-0.12934084
236	0xbe1eb1c7	-0.15497504
237	0x3e08b1d9	0.13349093
238	0x3d7a5cce	0.06112366
239	0x3e6025da	0.21889439
240	0x3dde1870	0.10844505
241	0x3e27b951	0.16379286
242	0x3e10d668	0.1414429
243	0x3c11a69a	0.008889819
244	0xbdce5565	-0.100748815
245	0x3dd18e84	0.10232261
246	0xbd25166a	-0.04030458
247	0x3d232b9d	0.039836515
248	0x3d3d457b	0.04620884
249	0xbe0a0c1e	-0.13481185
250	0x3d61a17d	0.055085648
251	0xbda05e0c	-0.07830438
252	0x3eb24484	0.34817898
253	0x3e5acdb8	0.21367538
254	0xbdf1e7e9	-0.118118115
255	0x3e81d631	0.25358728

attention_layers.0.out_proj.bias f4 [50]
0	0x3db22535	0.08698503
1	0xbe27031d	-0.16309781
2	0xbe3b647d	-0.18300052
3	0xbd6fda73	-0.05855794
4	0xb9d2f4c9	-0.000402367
5	0xbdf7313d	-0.12069938
6	0xbd784e2d	-0.06062143
7	0x3f0cc1cf	0.5498323
8	0x3c7d1102	0.0154459495
9	0xbe5b9ddd	-0.21446939
10	0x3e2d262f	0.16909097
11	0x3d7d1b37	0.061793532
12	0x3d63257b	0.055455666
13	0x3db0e552	0.086374894
14	0x3e0516c7	0.1299697
15	0x3d946ef1	0.07247723
16	0xbc4a7aa3	-0.01235834
17	0x3d541f6f	0.05178779
18	0xbe07a664	-0.13247067
19	0x3e122dbd	0.1427526
20	0xbdb4e371	-0.088324435
21	0xbe138ddc	-0.14409584
22	0x3efc67bd	0.49297896
23	0x3d7e0158	0.062013
24	0x3ed88d01	0.42295077
25	0xbce4fdaa	-0.027952988
26	0xbd3f5a12	-0.046716757
27	0x3c9c36b3	0.019069051
28	0x3dd57aec	0.10423836
29	0xbddd2246	-0.10797553
30	0x3db1739b	0.08664628
31	0xbdca0ab8	-0.09865326
32	0xbcfb18ef	-0.030651538
33	0x3d08acf2	0.03336806
34	0x3d0eef97	0.03489646
35	0xbe1418b4	-0.14462548
36	0xbea40eaf	-0.32042453
37	0x3b848256	0.0040438576
38	0xbe7c994b	-0.24667852
39	0x3c5d57e6	0.013509726
40	0xbe9650d1	-0.29358533
41	0xbdf440df	-0.11926436
42	0x3e566991	0.20938708
43	0xbd8fc1f3	-0.07019415
44	0xbd819d27	-0.063288026
45	0x3d774ee0	0.060377955
46	0xbd559155	-0.052140553
47	0xbdf7cd28	-0.12099677
48	0x3eaa3e4c	0.33250654
49	0xbd304374	-0.04303308

attention_layers.1.in_proj_weight f4 [150, 50]
0	0xbc96fdb4	-0.018431522
1	0x3cc824d2	0.02443162
2	0x3dfe4f4e	0.1241747
3	0x3e85b1ca	0.26112205
4	0xbdf94d09	-0.121728964
5	0xbd9823a1	-0.07428671
6	0x3d14fcf6	0.036374055
7	0xbde7b37c	-0.11313531
8	0x3d71cf8a	0.059035815
9	0x3e98b571	0.2982593
10	0xbd03b125	-0.03215136
11	0x3e954ba8	0.29159284
12	0x3e107628	0.14107573
13	0x3e1eee31	0.1552055
14	0x3e2804ab	0.1640803
15	0xbe3e62e0	-0.18592405
16	0x3c8edcf9	0.017439352
17	0x3d4858c8	0.048912793
18	0xbd4e8b41	-0.05042577
19	0x3cdb69cf	0.026783852
20	0x3caaad4a	0.020834584
21	0x3d492838	0.04911062
22	0x3d1e841c	0.038700208
23	0x3d844972	0.06459321
24	0x3dad14d3	0.084512375
25	0x3c892719	0.016742276
26	0xbdc86c7a	-0.09786315
27	0x3d7c537d	0.061603058
28	0xbd05f72e	-0.032706432
29	0x3da1665d	0.07880852
30	0x3c7888c4	0.015169326
31	0x3d4dd48e	0.050251536
32	0xbe5281dc	-0.2055735
33	0x3deeaac3	0.11653664
34	0xbd4c79c5	-0.049920816
35	0x3e162080	0.14660835
36	0xbe2220f8	-0.15832889
37	0xbe55c6be	-0.20876595
38	0x3dc97cba	0.09838243
39	0x3db71379	0.08939261
40	0x3e620cae	0.2207515
41	0x3dcf3306	0.10117154
42	0xbef84873	-0.48492774
43	0xbe034d40	-0.12822437
44	0x3b22f4ea	0.0024865218
45	0x3ce8fbc2	0.02844036
46	0x3da35aa0	0.0797627
47	0x3dae8aee	0.085225925
48	0xbbc566e1	-0.006024227
49	0x3e660026	0.22460994
50	0x3f0f26eb	0.5591876
51	0xbe04eef7	-0.12981783
52	0xbbb221d7	-0.005436163
53	0xbeaafe88	-0.33397317
54	0x3e06c154	0.13159686
55	0x3d394f37	0.04524156
56	0x3de7d614	0.11320129
57	0x3d18ea06	0.037332557
58	0x3de1969d	0.11015055
59	0x3c84371a	0.016139556
60	0x3d578c7e	0.05262422
61	0xbe4630fc	-0.19354624
62	0xbd8073ea	-0.06272109
63	0x3d103b94	0.035213068
64	0x3dfb11eb	0.12259277
65	0x3c4478cd	0.011991692
66	0x3d9f800e	0.07788096
67	0x3e856239	0.260515
68	0xbd37b963	-0.044854533
69	0x3e044ecd	0.12920685
70	0x3e05f477	0.13081537
71	0xbe1259d2	-0.14292076
72	0xbea842ed	-0.3286356
73	0xbd405637	-0.04695722
74	0x3e403e6f	0.18773817
75	0x3e805e24	0.25071824
76	0xbdbe3632	-0.09287681
77	0x3db850a9	0.0899976
78	0xbd26ea14	-0.040750578
79	0xbe809412	-0.2511297
80	0x3dbd8c3e	0.09255265
81	0xbdbed35b	-0.093176566
82	0xbd48fbe3	-0.049068343
83	0x3cf74738	0.030185327
84	0xbcaffe50	-0.02148357
85	0x3a7956b0	0.00095115136
86	0xbbf88e64	-0.0075853337
87	0x3d2a4eaa	0.041578926
88	0xbdcd7375	-0.10031787
89	0xbe6c1a6b	-0.23056953
90	0x3d0d3068	0.034469992
91	0xbe5e1a3e	-0.21689698
92	0xbe3238f2	-0.17404535
93	0x3d6b6390	0.057467997
94	0x3dbded2b	0.09273752
95	0xbc18719e	-0.009304432
96	0xbd42ad50	-0.047528565
97	0xbc21ad19	-0.00986793
98	0xbe1db3ed	-0.15400667
99	0xbe9a3613	-0.3011938
100	0xbd432ff6	-0.04765316
101	0xbe435095	-0.19073708
102	0x3da0d89b	0.07853814
103	0x3d35d2f2	0.044390626
104	0xbe288618	-0.16457403
105	0x3e3357b1	0.1751392
106	0x3d94f591	0.072734006
107	0x3dfc1da7	0.12310343
108	0xbe2dd08b	-0.16974084
109	0x3d267a82	0.040644176
110	0x3b8e3223	0.004339473
111	0xbe81148e	-0.25210994
112	0x3e31f067	0.17376862
113	0xbe0750cf	-0.1321442
114	0xbe423aed	-0.18967791
115	0xbcfb19d1	-0.030651959
116	0x3d2945d6	0.041326366
117	0xbd171a1c	-0.036890134
118	0x3e62db5f	0.22153996
119	0x3e4a5fe3	0.1976314
120	0x3ea653b4	0.32485735
121	0x3e481674	0.19539815
122	0x3ea6ccc7	0.32578108
123	0x3e013d34	0.12621003
124	0xbe1afda8	-0.15135825
125	0x3e826b7b	0.25472626
126	0xbd89f8f0	-0.06736934
127	0xbd2785e5	-0.040899176
128	0xbe3e8211	-0.18604304
129	0xbdf74574	-0.12073794
130	0x3e22ad70	0.15886474
131	0x3e37143c	0.17878813
132	0x3d604a3d	0.0547583
133	0x3e2e754b	0.17036931
134	0x3d4b2656	0.049597107
135	0x3d4d42b5	0.050112445
136	0xbc1b55a2	-0.009480866
137	0xbd11ebf9	-0.03562543
138	0xbd315d81	-0.043302063
139	0x3e7f41b4	0.24927408
140	0x3e2d1cee	0.16905567
141	0xbd01af35	-0.03166123
142	0xbed4a122	-0.41529185
143	0x3e49107b	0.19635193
144	0x3ea6c3e5	0.3257133
145	0xbe02a3ef	-0.12757848
146	0x3e3b1b8e	0.1827223
147	0xbe2f27d0	-0.17105031
148	0x3e2c6107	0.16833888
149	0xbe623103	-0.22089009
150	0x3eca5fee	0.39526314
151	0x3a8cb97d	0.0010736432
152	0xbe4c240b	-0.19935624
153	0xbe3d6c2b	-0.18498294
154	0xbc32a1e5	-0.0109028565
155	0xbd7acbe8	-0.061229616
156	0xbe659225	-0.22419031
157	0xbd8926e8	-0.06696874
158	0xbe1b1fc5	-0.15148838
159	0xbc7fd5b9	-0.01561492
160	0x3eabb6aa	0.335378
161	0xbd4310d9	-0.04762349
162	0x3daac0cf	0.083375566
163	0xbe919264	-0.28432
164	0xbc345d57	-0.011008582
165	0xbe2b9a2e	-0.16758034
166	0xbe9db3e3	-0.30801305
167	0x3dd834bd	0.10556934
168	0xbe55b29e	-0.20868918
169	0x3dba665e	0.09101556
170	0x3e119d86	0.14220247
171	0x3e9f29d9	0.31086615
172	0x3e4790a5	0.19488771
173	0x3e88a34a	0.2668708
174	0xbc7745ac	-0.015092295
175	0xbe93ccf6	-0.2886731
176	0x3cbb93f9	0.022897707
177	0x3e11311e	0.14178893
178	0x3b982fcd	0.00464437
179	0x3e7f2acf	0.24918674
180	0x3e123ef2	0.14281824
181	0x3dc3aa28	0.09553939
182	0x3ca3c803	0.019992834
183	0xbdf9062c	-0.1215938
184	0xbe7d5526	-0.24739513
185	0x3d45e8bc	0.048317656
186	0xbe3d4c70	-0.1848619
187	0x3e2188a3	0.15774779
188	0x3eb5be7d	0.35496894
189	0xbea39566	-0.3194992
190	0x3e28d37b	0.16486923
191	0x3e12d222	0.14337972
192	0xbdaaee2d	-0.0834621
193	0x3e4d5f22	0.20055822
194	0x3e56d5df	0.20980023
195	0xbd8f872e	-0.07008205
196	0x3e9fac3c	0.31186092
197	0x3d8548a1	0.065079935
198	0x3d3cf445	0.04613139
199	0x3d214a51	0.039377514
200	0xbebc078b	-0.36724505
201	0xbe13c164	-0.14429241
202	0x3e1cb6cc	0.15304106
203	0x3eac432d	0.33645
204	0x3e7df361	0.24799873
205	0xbe22e51b	-0.1590771
206	0xbc49f17c	-0.012325641
207	0x3e781a67	0.24228822
208	0x3c8e591d	0.017376477
209	0xba76dfcf	-0.00094175054
210	0x3dbfd224	0.09366253
211	0x3d3ab697	0.045584287
212	0x3d6298ca	0.055321492
213	0x3e4dd2ef	0.20099996
214	0xbe17eeba	-0.1483716
215	0xbe172e78	-0.1476382
216	0xbe19458b	-0.14967935
217	0x3dd6e227	0.10492354
218	0x3d98c132	0.07458724
219	0xbda7a51b	-0.08185788
220	0xbe6f7c6a	-0.23387304
221	0xbe5b82ac	-0.21436566
222	0xbe1e0497	-0.15431438
223	0x3d864b78	0.06557363
224	0x3e152e4d	0.14568444
225	0xbec0fc7b	-0.37692627
226	0xbda6ffb7	-0.081542425
227	0x3e0b11d7	0.13581024
228	0xbd9cde0f	-0.07659542
229	0x3cf9d6f7	0.030498011
230	0xbe009202	-0.12555698
231	0xbe18fee5	-0.14940985
232	0xbd487349	-0.04893807
233	0x3e345820	0.17611742
234	0x3e736127	0.2376753
235	0x3e07b0bf	0.13251017
236	0x3e858dc6	0.26084727
237	0x3def44e0	0.11683059
238	0xbd12c9f9	-0.035837147
239	0x3d9cf8e7	0.07664662
240	0x3d9351d5	0.071933426
241	0x3e0328a6	0.12808475
242	0xbe9f01c2	-0.3105603
243	0xbd180faf	-0.037124332
244	0xbe55f03b	-0.20892422
245	0xbd188e3e	-0.037245028
246	0x3e7635d7	0.24043976
247	0xbcb1acce	-0.021688845
248	0x3d66e1ab	0.056367557
249	0x3c626bd4	0.013819654
250	0x3e48a66f	0.1959474
251	0xbde1110a	-0.10989578
252	0xbea18020	-0.31543064
253	0xbe82e23f	-0.25563237
254	0xba97b7f7	-0.0011575212
255	0x3e3994ea	0.18123212

attention_layers.1.in_proj_bias f4 [150]
0	0x3e6e4e06	0.23271951
1	0xbe8d9e3f	-0.27659795
2	0x3e0ff9c5	0.14060123
3	0x3e3fd8a1	0.18734981
4	0xbe35cebc	-0.17754644
5	0x3e2e77da	0.17037907
6	0xbdca05d0	-0.0986439
7	0xbe15d386	-0.14631471
8	0x3e07e3cc	0.13270491
9	0x3e11ac32	0.14225844
10	0x3e593243	0.2121058
11	0xbe691331	-0.22761227
12	0x3d51a394	0.05118139
13	0x3d577934	0.052605823
14	0x3e38fe2f	0.18065713
15	0x3e7a9a1c	0.2447285
16	0xbdf23a6d	-0.1182755
17	0x3e8c4ce2	0.27402407
18	0x3e50642a	0.2035071
19	0x3e0014be	0.12507913
20	0x3de43389	0.11142642
21	0x3db7d598	0.08976287
22	0x3dc9fbee	0.09862505
23	0x3e025932	0.12729338
24	0x3d9566af	0.07294976
25	0xbe7f89b8	-0.2495488
26	0xbb8f2bcb	-0.004369234
27	0xbdc5bfec	-0.09655747
28	0x3e653c75	0.22386344
29	0x3e0035ed	0.12520571
30	0x3c824055	0.015899817
31	0x3dea41a9	0.11438305
32	0xbe373cae	-0.17894241
33	0x3b8c6f84	0.0042857546
34	0xbdd2b2c7	-0.10288005
35	0xbe479c2f	-0.19493173
36	0xbd09204d	-0.03347807
37	0x3e275379	0.16340436
38	0x3c025b3d	0.007956323
39	0x3d25336e	0.04033225
40	0x3d490ecd	0.04908638
41	0x3cad866b	0.02118226
42	0xbd456328	-0.048190266
43	0x3def1ad1	0.11675037
44	0xbe019fea	-0.12658659
45	0x3e3774a7	0.17915593
46	0xbd1596e3	-0.03652085
47	0x3d02899b	0.031869512
48	0x3e1f74e2	0.15571931
49	0xbe037906	-0.12839136
50	0xbbe3e4a9	-0.0069547486
51	0x3993fe38	0.00028227433
52	0xb9b145ae	-0.00033811986
53	0x3acdbec0	0.0015697107
54	0x39964014	0.0002865797
55	0xbb082511	-0.0020774046
56	0x3a584ffb	0.0008251664
57	0x3ab14b8f	0.0013526547
58	0xba663e1b	-0.0008783058
59	0x3a8ed7cb	0.0010898052
60	0xb910426c	-0.00013757654
61	0x383e21cd	4.533101e-05
62	0xbb604c70	-0.0034225248
63	0x3a37f55d	0.0007017458
64	0x3a858f00	0.0010189712
65	0xbb1f2108	-0.0024281163
66	0xba921956	-0.0011146467
67	0x3a594d95	0.00082894537
68	0xb9dbadb6	-0.0004190036
69	0xbbe11ce7	-0.0068699005
70	0xbad1bdcf	-0.0016002002
71	0x3ad1e393	0.0016013257
72	0x3ab4a169	0.0013781014
73	0x39a24d2c	0.00030956545
74	0xbaa3e42f	-0.0012503917
75	0xba898354	-0.0010491409
76	0x3a996431	0.0011702833
77	0x3936a0d8	0.00017416792
78	0x393ddaba	0.00018105927
79	0x3a232ee5	0.00062249444
80	0xba5398a2	-0.00080717553
81	0xbaf74b7b	-0.00188671
82	0x3af02aab	0.0018323263
83	0x3b0f5f9b	0.0021877054
84	0x3ac9d13f	0.0015397443
85	0xbb586dc9	-0.0033024421
86	0xbb803d07	-0.003913525
87	0xbae7b064	-0.001767647
88	0xba3e8825	-0.0007268212
89	0x38e28c23	0.00010802622
90	0x3995bc3f	0.0002855975
91	0xbb2f24d2	-0.0026724827
92	0x3ba08dea	0.00489973
93	0xbb4f8472	-0.0031664637
94	0x39fe2868	0.0004847676
95	0x398e7832	0.00027173903
96	0xba50a22b	-0.0007958735
97	0xba96262f	-0.0011455471
98	0xbb1b749b	-0.0023720625
99	0xbab2da50	-0.0013645384
100	0xbe5b8082	-0.2143574
101	0x3c83c060	0.016082942
102	0xbe93269d	-0.28740397
103	0xbe29d12a	-0.16583696
104	0xbf09f878	-0.5389476
105	0xbe613c2e	-0.21995613
106	0x3eabdfae	0.33569092
107	0x3c4244cd	0.011857224
108	0xbea038f7	-0.3129346
109	0x3e304d35	0.17216952
110	0x3ea79ddc	0.32737625
111	0x3e1e8377	0.15479837
112	0x3cf2ae51	0.029624136
113	0x3ea18cb7	0.3155267
114	0xbe0ba3fc	-0.13636774
115	0x3d91b027	0.071136765
116	0x3e140a16	0.14456972
117	0x3d6e814b	0.058228772
118	0xbe4ed632	-0.20198897
119	0xbf25b3a1	-0.64727217
120	0x3bff5d4b	0.007793104
121	0x3ea678ba	0.32513982
122	0xbea84080	-0.3286171
123	0x3e975681	0.29558185
124	0xbdacc368	-0.08435708
125	0x3d1abf4a	0.037780084
126	0xbf10ff1a	-0.56639254
127	0x3c598663	0.013276669
128	0x3eacad03	0.33725747
129	0xbf230351	-0.63676935
130	0xbc00d195	-0.007862468
131	0xbdebb422	-0.11508967
132	0xbe04056c	-0.12892693
133	0xbd70152e	-0.05861395
134	0x3e9c4647	0.30522367
135	0x3ea4c3ea	0.3218072
136	0xbf16c7e7	-0.58898777
137	0xbe0bdfe4	-0.13659626
138	0x3e65c918	0.22439992
139	0xbe7dae88	-0.2477361
140	0x3e32bfc9	0.17455973
141	0x3ea24b23	0.3169795
142	0xbf33c51f	-0.7022266
143	0xbd4295b9	-0.047506068
144	0xbdb9c9c3	-0.09071686
145	0x3e6036bc	0.2189588
146	0xbebc6ce0	-0.36801815
147	0xbe9358de	-0.28778738
148	0x3d314b23	0.043284547
149	0xbe305601	-0.17220308
